
------ ******* ------ New Log ------ ******* ------
isTrain: True
net: CNN_CE
isCNN: True
isRandom: True
exp_name: Task2_CNN
batch_size: 32
epoch: 150
milestones: [50, 100]
lr: 0.001
weight_decay: 0.0
reweight: 1.0
dir_root: ./data
task: Task_2
filename: data.mat
save_dir: ./experiments
CNN_CE(
  (feat_extractor): Sequential(
    (0): Conv1d(1, 16, kernel_size=(11,), stride=(5,), bias=False)
    (1): ReLU()
    (2): Conv1d(16, 32, kernel_size=(7,), stride=(3,), bias=False)
    (3): ReLU()
  )
  (feat_mapping): Sequential(
    (0): Conv1d(32, 32, kernel_size=(3,), stride=(1,), padding=(1,), bias=False)
    (1): ReLU()
    (2): Conv1d(32, 32, kernel_size=(3,), stride=(1,), padding=(1,), bias=False)
    (3): ReLU()
  )
  (classifier): Sequential(
    (0): AdaptiveAvgPool1d(output_size=1)
    (1): Flatten()
    (2): Linear(in_features=32, out_features=2, bias=True)
  )
)
EPOCH = 000/150, [time] = 4.93s, [Acc 10688-tr]:0.693, [avrg loss] = 0.6032726. [Accu 1386-Val]:0.732. Best @ 000, with accu 0.732.
EPOCH = 001/150, [time] = 4.56s, [Acc 10688-tr]:0.694, [avrg loss] = 0.6034812. [Accu 1386-Val]:0.732. Best @ 000, with accu 0.732.
EPOCH = 002/150, [time] = 4.57s, [Acc 10688-tr]:0.696, [avrg loss] = 0.5952023. [Accu 1386-Val]:0.727. Best @ 000, with accu 0.732.
…
EPOCH = 069/150, [time] = 4.39s, [Acc 10688-tr]:0.865, [avrg loss] = 0.3322867. [Accu 1386-Val]:0.714. Best @ 032, with accu 0.744.
EPOCH = 070/150, [time] = 4.67s, [Acc 10688-tr]:0.862, [avrg loss] = 0.3243380. [Accu 1386-Val]:0.728. Best @ 032, with accu 0.744.

------ ******* ------ New Log ------ ******* ------
isTrain: True
net: CNN_CE_2
isCNN: True
isRandom: True
exp_name: Task2_CNN
batch_size: 32
epoch: 150
milestones: [50, 100]
lr: 0.001
weight_decay: 0.0
reweight: 1.0
dir_root: ./data
task: Task_2
filename: data.mat
save_dir: ./experiments
CNN_CE_2(
  (feat_extractor): Sequential(
    (0): Conv1d(1, 16, kernel_size=(11,), stride=(5,), bias=False)
    (1): BatchNorm1d(16, eps=1e-05, momentum=0.1, affine=True, track_running_stats=True)
    (2): ReLU()
    (3): Conv1d(16, 32, kernel_size=(7,), stride=(3,), bias=False)
    (4): BatchNorm1d(32, eps=1e-05, momentum=0.1, affine=True, track_running_stats=True)
    (5): ReLU()
  )
  (feat_mapping): Sequential(
    (0): Conv1d(32, 32, kernel_size=(3,), stride=(1,), padding=(1,), bias=False)
    (1): BatchNorm1d(32, eps=1e-05, momentum=0.1, affine=True, track_running_stats=True)
    (2): ReLU()
    (3): Conv1d(32, 32, kernel_size=(3,), stride=(1,), padding=(1,), bias=False)
    (4): BatchNorm1d(32, eps=1e-05, momentum=0.1, affine=True, track_running_stats=True)
    (5): ReLU()
  )
  (classifier): Sequential(
    (0): AdaptiveAvgPool1d(output_size=1)
    (1): Flatten()
    (2): Linear(in_features=32, out_features=2, bias=True)
  )
)
EPOCH = 000/150, [time] = 4.97s, [Acc 10688-tr]:0.789, [avrg loss] = 0.5593205. [Accu 1386-Val]:0.757. Best @ 000, with accu 0.757.
EPOCH = 001/150, [time] = 4.90s, [Acc 10688-tr]:0.825, [avrg loss] = 0.4895779. [Accu 1386-Val]:0.788. Best @ 001, with accu 0.788.
EPOCH = 002/150, [time] = 4.90s, [Acc 10688-tr]:0.811, [avrg loss] = 0.4477023. [Accu 1386-Val]:0.809. Best @ 002, with accu 0.809.
…
