
------ ******* ------ New Log ------ ******* ------
isTrain: True
net: MLP_CE_attention
isCNN: False
isRandom: True
exp_name: Task1_MLP_CE_attention
batch_size: 32
epoch: 150
milestones: [50, 100]
lr: 0.001
weight_decay: 0.0
reweight: 1.0
dir_root: ./data
task: Task_1
filename: data_1.mat
save_dir: ./experiments
MLP_CE_attention(
  (mlp): Sequential(
    (0): Linear(in_features=779, out_features=32, bias=True)
    (1): ReLU()
    (2): Linear(in_features=32, out_features=32, bias=True)
    (3): ReLU()
    (4): Linear(in_features=32, out_features=32, bias=True)
    (5): ReLU()
    (6): Linear(in_features=32, out_features=2, bias=True)
  )
  (attention): Sequential(
    (0): Linear(in_features=779, out_features=128, bias=True)
    (1): ReLU()
    (2): Linear(in_features=128, out_features=128, bias=True)
    (3): ReLU()
    (4): Linear(in_features=128, out_features=779, bias=True)
  )
)
EPOCH = 000/150, [time] = 2.12s, [Acc 4256-tr]:0.804, [avrg loss] = 0.4763895. [Accu 528-Val]:0.820. Best @ 000, with accu 0.820.
EPOCH = 001/150, [time] = 2.07s, [Acc 4256-tr]:0.863, [avrg loss] = 0.3639434. [Accu 528-Val]:0.902. Best @ 001, with accu 0.902.
EPOCH = 002/150, [time] = 2.10s, [Acc 4256-tr]:0.848, [avrg loss] = 0.2900398. [Accu 528-Val]:0.775. Best @ 001, with accu 0.902.
…
EPOCH = 020/150, [time] = 2.08s, [Acc 4256-tr]:0.949, [avrg loss] = 0.1532895. [Accu 528-Val]:0.837. Best @ 001, with accu 0.902.
EPOCH = 021/150, [time] = 2.07s, [Acc 4256-tr]:0.949, [avrg loss] = 0.1599707. [Accu 528-Val]:0.852. Best @ 001, with accu 0.902.

------ ******* ------ New Log ------ ******* ------
isTrain: True
net: MLP_CE_attention
isCNN: False
isRandom: True
exp_name: Task1_MLP_CE_attention
batch_size: 32
epoch: 150
milestones: [50, 100]
lr: 0.001
weight_decay: 0.0
reweight: 1.0
dir_root: ./data
task: Task_1
filename: data_1.mat
save_dir: ./experiments
MLP_CE_attention(
  (mlp): Sequential(
    (0): Linear(in_features=779, out_features=32, bias=True)
    (1): ReLU()
    (2): Linear(in_features=32, out_features=32, bias=True)
    (3): ReLU()
    (4): Linear(in_features=32, out_features=32, bias=True)
    (5): ReLU()
    (6): Linear(in_features=32, out_features=2, bias=True)
  )
  (attention): Sequential(
    (0): Linear(in_features=779, out_features=128, bias=True)
    (1): ReLU()
    (2): Linear(in_features=128, out_features=128, bias=True)
    (3): ReLU()
    (4): Linear(in_features=128, out_features=779, bias=True)
  )
)

------ ******* ------ New Log ------ ******* ------
isTrain: True
net: MLP_CE_attention
isCNN: False
isRandom: True
exp_name: Task1_MLP_CE_attention
batch_size: 32
epoch: 150
milestones: [50, 100]
lr: 0.001
weight_decay: 0.0
reweight: 1.0
dir_root: ./data
task: Task_1
filename: data_1.mat
save_dir: ./experiments
MLP_CE_attention(
  (mlp): Sequential(
    (0): Linear(in_features=779, out_features=32, bias=True)
    (1): ReLU()
    (2): Linear(in_features=32, out_features=32, bias=True)
    (3): ReLU()
    (4): Linear(in_features=32, out_features=32, bias=True)
    (5): ReLU()
    (6): Linear(in_features=32, out_features=2, bias=True)
  )
  (attention): Sequential(
    (0): Linear(in_features=779, out_features=128, bias=True)
    (1): ReLU()
    (2): Linear(in_features=128, out_features=128, bias=True)
    (3): ReLU()
    (4): Linear(in_features=128, out_features=779, bias=True)
  )
)
EPOCH = 000/150, [time] = 2.23s, [Acc 4256-tr]:0.870, [avrg loss] = 0.4440025. [Accu 528-Val]:0.894. Best @ 000, with accu 0.894.
EPOCH = 001/150, [time] = 2.05s, [Acc 4256-tr]:0.883, [avrg loss] = 0.2985745. [Accu 528-Val]:0.903. Best @ 001, with accu 0.903.
EPOCH = 002/150, [time] = 2.04s, [Acc 4256-tr]:0.858, [avrg loss] = 0.2909789. [Accu 528-Val]:0.911. Best @ 002, with accu 0.911.
…
