
------ ******* ------ New Log ------ ******* ------
isTrain: True
net: CNN_CE
isCNN: True
isRandom: True
exp_name: Task1_CNN
batch_size: 32
epoch: 150
milestones: [50, 100]
lr: 0.001
weight_decay: 0.0
reweight: 1.0
dir_root: ./data
task: Task_1
filename: data_1.mat
save_dir: ./experiments
CNN_CE(
  (feat_extractor): Sequential(
    (0): Conv1d(1, 16, kernel_size=(11,), stride=(5,), bias=False)
    (1): ReLU()
    (2): Conv1d(16, 32, kernel_size=(7,), stride=(3,), bias=False)
    (3): ReLU()
  )
  (feat_mapping): Sequential(
    (0): Conv1d(32, 32, kernel_size=(3,), stride=(1,), padding=(1,), bias=False)
    (1): ReLU()
    (2): Conv1d(32, 32, kernel_size=(3,), stride=(1,), padding=(1,), bias=False)
    (3): ReLU()
  )
  (classifier): Sequential(
    (0): AdaptiveAvgPool1d(output_size=1)
    (1): Flatten()
    (2): Linear(in_features=32, out_features=1, bias=True)
  )
)

------ ******* ------ New Log ------ ******* ------
isTrain: True
net: CNN_CE
isCNN: True
isRandom: True
exp_name: Task1_CNN
batch_size: 32
epoch: 150
milestones: [50, 100]
lr: 0.001
weight_decay: 0.0
reweight: 1.0
dir_root: ./data
task: Task_1
filename: data_1.mat
save_dir: ./experiments
CNN_CE(
  (feat_extractor): Sequential(
    (0): Conv1d(1, 16, kernel_size=(11,), stride=(5,), bias=False)
    (1): ReLU()
    (2): Conv1d(16, 32, kernel_size=(7,), stride=(3,), bias=False)
    (3): ReLU()
  )
  (feat_mapping): Sequential(
    (0): Conv1d(32, 32, kernel_size=(3,), stride=(1,), padding=(1,), bias=False)
    (1): ReLU()
    (2): Conv1d(32, 32, kernel_size=(3,), stride=(1,), padding=(1,), bias=False)
    (3): ReLU()
  )
  (classifier): Sequential(
    (0): AdaptiveAvgPool1d(output_size=1)
    (1): Flatten()
    (2): Linear(in_features=32, out_features=1, bias=True)
  )
)

------ ******* ------ New Log ------ ******* ------
isTrain: True
net: CNN_CE
isCNN: True
isRandom: True
exp_name: Task1_CNN
batch_size: 32
epoch: 150
milestones: [50, 100]
lr: 0.001
weight_decay: 0.0
reweight: 1.0
dir_root: ./data
task: Task_1
filename: data_1.mat
save_dir: ./experiments
CNN_CE(
  (feat_extractor): Sequential(
    (0): Conv1d(1, 16, kernel_size=(11,), stride=(5,), bias=False)
    (1): ReLU()
    (2): Conv1d(16, 32, kernel_size=(7,), stride=(3,), bias=False)
    (3): ReLU()
  )
  (feat_mapping): Sequential(
    (0): Conv1d(32, 32, kernel_size=(3,), stride=(1,), padding=(1,), bias=False)
    (1): ReLU()
    (2): Conv1d(32, 32, kernel_size=(3,), stride=(1,), padding=(1,), bias=False)
    (3): ReLU()
  )
  (classifier): Sequential(
    (0): AdaptiveAvgPool1d(output_size=1)
    (1): Flatten()
    (2): Linear(in_features=32, out_features=1, bias=True)
  )
)

------ ******* ------ New Log ------ ******* ------
isTrain: True
net: CNN_CE
isCNN: True
isRandom: True
exp_name: Task1_CNN
batch_size: 32
epoch: 150
milestones: [50, 100]
lr: 0.001
weight_decay: 0.0
reweight: 1.0
dir_root: ./data
task: Task_1
filename: data_1.mat
save_dir: ./experiments
CNN_CE(
  (feat_extractor): Sequential(
    (0): Conv1d(1, 16, kernel_size=(11,), stride=(5,), bias=False)
    (1): ReLU()
    (2): Conv1d(16, 32, kernel_size=(7,), stride=(3,), bias=False)
    (3): ReLU()
  )
  (feat_mapping): Sequential(
    (0): Conv1d(32, 32, kernel_size=(3,), stride=(1,), padding=(1,), bias=False)
    (1): ReLU()
    (2): Conv1d(32, 32, kernel_size=(3,), stride=(1,), padding=(1,), bias=False)
    (3): ReLU()
  )
  (classifier): Sequential(
    (0): AdaptiveAvgPool1d(output_size=1)
    (1): Flatten()
    (2): Linear(in_features=32, out_features=2, bias=True)
  )
)
EPOCH = 000/150, [time] = 2.26s, [Acc 4256-tr]:0.775, [avrg loss] = 0.5607189. [Accu 528-Val]:0.784. Best @ 000, with accu 0.784.
EPOCH = 001/150, [time] = 2.14s, [Acc 4256-tr]:0.775, [avrg loss] = 0.5514154. [Accu 528-Val]:0.784. Best @ 000, with accu 0.784.
EPOCH = 002/150, [time] = 2.12s, [Acc 4256-tr]:0.774, [avrg loss] = 0.5514673. [Accu 528-Val]:0.784. Best @ 000, with accu 0.784.
…
EPOCH = 084/150, [time] = 2.16s, [Acc 4256-tr]:0.910, [avrg loss] = 0.2095790. [Accu 528-Val]:0.900. Best @ 036, with accu 0.930.
EPOCH = 085/150, [time] = 2.16s, [Acc 4256-tr]:0.916, [avrg loss] = 0.2094790. [Accu 528-Val]:0.902. Best @ 036, with accu 0.930.
EPOCH = 086/150, [time] = 2.09s, [Acc 4256-tr]:0.912, [avrg loss] = 0.2127463. [Accu 528-Val]:0.879. Best @ 036, with accu 0.930.

------ ******* ------ New Log ------ ******* ------
isTrain: True
net: CNN_CE
isCNN: True
isRandom: True
exp_name: Task1_CNN
batch_size: 32
epoch: 150
milestones: [50, 100]
lr: 0.001
weight_decay: 0.0
reweight: 1.0
dir_root: ./data
task: Task_1
filename: data_1.mat
save_dir: ./experiments
CNN_CE(
  (feat_extractor): Sequential(
    (0): Conv1d(1, 16, kernel_size=(11,), stride=(5,), bias=False)
    (1): ReLU()
    (2): Conv1d(16, 32, kernel_size=(7,), stride=(3,), bias=False)
    (3): ReLU()
  )
  (feat_mapping): Sequential(
    (0): Conv1d(32, 32, kernel_size=(3,), stride=(1,), padding=(1,), bias=False)
    (1): ReLU()
    (2): Conv1d(32, 32, kernel_size=(3,), stride=(1,), padding=(1,), bias=False)
    (3): ReLU()
  )
  (classifier): Sequential(
    (0): AdaptiveAvgPool1d(output_size=1)
    (1): Flatten()
    (2): Linear(in_features=32, out_features=2, bias=True)
  )
)
EPOCH = 000/150, [time] = 2.26s, [Acc 4256-tr]:0.774, [avrg loss] = 0.5666334. [Accu 528-Val]:0.784. Best @ 000, with accu 0.784.
EPOCH = 001/150, [time] = 2.09s, [Acc 4256-tr]:0.774, [avrg loss] = 0.5589705. [Accu 528-Val]:0.784. Best @ 000, with accu 0.784.
EPOCH = 002/150, [time] = 2.13s, [Acc 4256-tr]:0.773, [avrg loss] = 0.5564773. [Accu 528-Val]:0.784. Best @ 000, with accu 0.784.
…
