
------ ******* ------ New Log ------ ******* ------
isTrain: True
net: MLP_CE_2
isCNN: False
isRandom: True
exp_name: Task2_MLP_CE_2
batch_size: 32
epoch: 250
milestones: [50, 100]
lr: 0.001
weight_decay: 0.0
reweight: 1.0
dir_root: ./data
task: Task_2
filename: data_2.mat
save_dir: ./experiments
MLP_CE_2(
  (mlp): Sequential(
    (0): Linear(in_features=779, out_features=32, bias=True)
    (1): BatchNorm1d(32, eps=1e-05, momentum=0.1, affine=True, track_running_stats=True)
    (2): ReLU()
    (3): Linear(in_features=32, out_features=32, bias=True)
    (4): BatchNorm1d(32, eps=1e-05, momentum=0.1, affine=True, track_running_stats=True)
    (5): ReLU()
    (6): Linear(in_features=32, out_features=32, bias=True)
    (7): BatchNorm1d(32, eps=1e-05, momentum=0.1, affine=True, track_running_stats=True)
    (8): ReLU()
    (9): Linear(in_features=32, out_features=2, bias=True)
  )
)

------ ******* ------ New Log ------ ******* ------
isTrain: True
net: MLP_CE_2
isCNN: False
isRandom: True
exp_name: Task2_MLP_CE_2
batch_size: 32
epoch: 250
milestones: [50, 100]
lr: 0.001
weight_decay: 0.0
reweight: 1.0
dir_root: ./data
task: Task_2
filename: data_2.mat
save_dir: ./experiments
MLP_CE_2(
  (mlp): Sequential(
    (0): Linear(in_features=779, out_features=32, bias=True)
    (1): BatchNorm1d(32, eps=1e-05, momentum=0.1, affine=True, track_running_stats=True)
    (2): ReLU()
    (3): Linear(in_features=32, out_features=32, bias=True)
    (4): BatchNorm1d(32, eps=1e-05, momentum=0.1, affine=True, track_running_stats=True)
    (5): ReLU()
    (6): Linear(in_features=32, out_features=32, bias=True)
    (7): BatchNorm1d(32, eps=1e-05, momentum=0.1, affine=True, track_running_stats=True)
    (8): ReLU()
    (9): Linear(in_features=32, out_features=2, bias=True)
  )
)

------ ******* ------ New Log ------ ******* ------
isTrain: True
net: MLP_CE_2
isCNN: False
isRandom: True
exp_name: Task2_MLP_CE_2
batch_size: 32
epoch: 250
milestones: [50, 100]
lr: 0.001
weight_decay: 0.0
reweight: 1.0
dir_root: ./data
task: Task_2
filename: data2.mat
save_dir: ./experiments
MLP_CE_2(
  (mlp): Sequential(
    (0): Linear(in_features=779, out_features=32, bias=True)
    (1): BatchNorm1d(32, eps=1e-05, momentum=0.1, affine=True, track_running_stats=True)
    (2): ReLU()
    (3): Linear(in_features=32, out_features=32, bias=True)
    (4): BatchNorm1d(32, eps=1e-05, momentum=0.1, affine=True, track_running_stats=True)
    (5): ReLU()
    (6): Linear(in_features=32, out_features=32, bias=True)
    (7): BatchNorm1d(32, eps=1e-05, momentum=0.1, affine=True, track_running_stats=True)
    (8): ReLU()
    (9): Linear(in_features=32, out_features=2, bias=True)
  )
)
EPOCH = 000/250, [time] = 4.28s, [Acc 10656-tr]:0.822, [avrg loss] = 0.4804883. [Accu 1399-Val]:0.722. Best @ 000, with accu 0.722.
EPOCH = 001/250, [time] = 4.02s, [Acc 10656-tr]:0.751, [avrg loss] = 0.3392423. [Accu 1399-Val]:0.931. Best @ 001, with accu 0.931.
EPOCH = 002/250, [time] = 4.03s, [Acc 10656-tr]:0.733, [avrg loss] = 0.2747315. [Accu 1399-Val]:0.553. Best @ 001, with accu 0.931.
…
