…
------ ******* ------ New Log ------ ******* ------
isTrain: True
net: MLP_CE
isCNN: False
isRandom: False
exp_name: Task1_MLP_CE
batch_size: 32
epoch: 250
milestones: [50, 100]
lr: 0.001
weight_decay: 0.0
reweight: 1.0
dir_root: ./data
task: Task_1
filename: data_1.mat
save_dir: ./experiments

------ ******* ------ New Log ------ ******* ------
isTrain: True
net: MLP_CE
isCNN: False
isRandom: True
exp_name: Task1_MLP_CE
batch_size: 32
epoch: 150
milestones: [50, 100]
lr: 0.001
weight_decay: 0.0
reweight: 1.0
dir_root: ./data
task: Task_1
filename: data.mat
save_dir: ./experiments
MLP_CE(
  (mlp): Sequential(
    (0): Linear(in_features=779, out_features=32, bias=True)
    (1): ReLU()
    (2): Linear(in_features=32, out_features=32, bias=True)
    (3): ReLU()
    (4): Linear(in_features=32, out_features=32, bias=True)
    (5): ReLU()
    (6): Linear(in_features=32, out_features=2, bias=True)
  )
)

------ ******* ------ New Log ------ ******* ------
isTrain: True
net: MLP_CE_2
isCNN: False
isRandom: True
exp_name: Task1_MLP_CE
batch_size: 32
epoch: 150
milestones: [50, 100]
lr: 0.001
weight_decay: 0.0
reweight: 1.0
dir_root: ./data
task: Task_1
filename: data_1.mat
save_dir: ./experiments
MLP_CE_2(
  (mlp): Sequential(
    (0): Linear(in_features=779, out_features=32, bias=True)
    (1): BatchNorm1d(32, eps=1e-05, momentum=0.1, affine=True, track_running_stats=True)
    (2): ReLU()
    (3): Linear(in_features=32, out_features=32, bias=True)
    (4): BatchNorm1d(32, eps=1e-05, momentum=0.1, affine=True, track_running_stats=True)
    (5): ReLU()
    (6): Linear(in_features=32, out_features=32, bias=True)
    (7): BatchNorm1d(32, eps=1e-05, momentum=0.1, affine=True, track_running_stats=True)
    (8): ReLU()
    (9): Linear(in_features=32, out_features=2, bias=True)
  )
)
EPOCH = 000/150, [time] = 2.19s, [Acc 4256-tr]:0.825, [avrg loss] = 0.5023293. [Accu 528-Val]:0.786. Best @ 000, with accu 0.786.
EPOCH = 001/150, [time] = 2.00s, [Acc 4256-tr]:0.909, [avrg loss] = 0.3038041. [Accu 528-Val]:0.888. Best @ 001, with accu 0.888.
EPOCH = 002/150, [time] = 2.03s, [Acc 4256-tr]:0.882, [avrg loss] = 0.2669021. [Accu 528-Val]:0.888. Best @ 001, with accu 0.888.
…
