
------ ******* ------ New Log ------ ******* ------
isTrain: True
net: MLP_CE
isCNN: False
isRandom: False
exp_name: Task2_MLP_CE
batch_size: 32
epoch: 250
milestones: [50, 100]
lr: 0.001
weight_decay: 0.0
reweight: 1.0
dir_root: ./data
filename: Task_1/data_1.mat
save_dir: ./experiments
MLP_CE(
  (mlp): Sequential(
    (0): Linear(in_features=779, out_features=32, bias=True)
    (1): ReLU()
    (2): Linear(in_features=32, out_features=32, bias=True)
    (3): ReLU()
    (4): Linear(in_features=32, out_features=32, bias=True)
    (5): ReLU()
    (6): Linear(in_features=32, out_features=2, bias=True)
  )
)
EPOCH = 000/250, [time] = 2.22s, [Acc 3840-tr]:0.791, [avrg loss] = 0.4764599. [Accu 961-Val]:0.778. Best @ 000, with accu 0.778.
EPOCH = 001/250, [time] = 2.07s, [Acc 3840-tr]:0.886, [avrg loss] = 0.3447782. [Accu 961-Val]:0.874. Best @ 001, with accu 0.874.
EPOCH = 002/250, [time] = 2.18s, [Acc 3840-tr]:0.893, [avrg loss] = 0.2742804. [Accu 961-Val]:0.881. Best @ 002, with accu 0.881.

------ ******* ------ New Log ------ ******* ------
isTrain: True
net: MLP_CE
isCNN: False
isRandom: False
exp_name: Task2_MLP_CE
batch_size: 32
epoch: 250
milestones: [50, 100]
lr: 0.001
weight_decay: 0.0
reweight: 1.0
dir_root: ./data
filename: Task_2/data_1.mat
save_dir: ./experiments
MLP_CE(
  (mlp): Sequential(
    (0): Linear(in_features=779, out_features=32, bias=True)
    (1): ReLU()
    (2): Linear(in_features=32, out_features=32, bias=True)
    (3): ReLU()
    (4): Linear(in_features=32, out_features=32, bias=True)
    (5): ReLU()
    (6): Linear(in_features=32, out_features=2, bias=True)
  )
)

------ ******* ------ New Log ------ ******* ------
isTrain: True
net: MLP_CE
isCNN: False
isRandom: False
exp_name: Task2_MLP_CE
batch_size: 32
epoch: 250
milestones: [50, 100]
lr: 0.001
weight_decay: 0.0
reweight: 1.0
dir_root: ./data
filename: Task_2/data_1.mat
save_dir: ./experiments
MLP_CE(
  (mlp): Sequential(
    (0): Linear(in_features=779, out_features=32, bias=True)
    (1): ReLU()
    (2): Linear(in_features=32, out_features=32, bias=True)
    (3): ReLU()
    (4): Linear(in_features=32, out_features=32, bias=True)
    (5): ReLU()
    (6): Linear(in_features=32, out_features=2, bias=True)
  )
)
EPOCH = 000/250, [time] = 4.80s, [Acc 9696-tr]:0.751, [avrg loss] = 0.5495471. [Accu 2432-Val]:0.624. Best @ 000, with accu 0.624.
EPOCH = 001/250, [time] = 4.58s, [Acc 9696-tr]:0.782, [avrg loss] = 0.5148818. [Accu 2432-Val]:0.735. Best @ 001, with accu 0.735.
EPOCH = 002/250, [time] = 4.49s, [Acc 9696-tr]:0.721, [avrg loss] = 0.4989576. [Accu 2432-Val]:0.450. Best @ 001, with accu 0.735.
…
EPOCH = 042/250, [time] = 3.94s, [Acc 10688-tr]:0.870, [avrg loss] = 0.3166232. [Accu 1386-Val]:0.804. Best @ 008, with accu 0.812.
EPOCH = 043/250, [time] = 3.75s, [Acc 10688-tr]:0.841, [avrg loss] = 0.3122928. [Accu 1386-Val]:0.763. Best @ 008, with accu 0.812.
EPOCH = 044/250, [time] = 3.77s, [Acc 10688-tr]:0.875, [avrg loss] = 0.3084482. [Accu 1386-Val]:0.768. Best @ 008, with accu 0.812.

------ ******* ------ New Log ------ ******* ------
isTrain: True
net: MLP_CE
isCNN: False
isRandom: False
exp_name: Task2_MLP_CE
batch_size: 32
epoch: 250
milestones: [50, 100]
lr: 0.001
weight_decay: 0.0
reweight: 1.0
dir_root: ./data
task: Task_2
filename: data.mat
save_dir: ./experiments
MLP_CE(
  (mlp): Sequential(
    (0): Linear(in_features=779, out_features=32, bias=True)
    (1): ReLU()
    (2): Linear(in_features=32, out_features=32, bias=True)
    (3): ReLU()
    (4): Linear(in_features=32, out_features=32, bias=True)
    (5): ReLU()
    (6): Linear(in_features=32, out_features=2, bias=True)
  )
)
EPOCH = 000/250, [time] = 3.78s, [Acc 10688-tr]:0.715, [avrg loss] = 0.5621318. [Accu 1386-Val]:0.741. Best @ 000, with accu 0.741.

------ ******* ------ New Log ------ ******* ------
isTrain: True
net: MLP_CE
isCNN: False
isRandom: False
exp_name: Task2_MLP_CE
batch_size: 32
epoch: 250
milestones: [50, 100]
lr: 0.001
weight_decay: 0.0
reweight: 1.0
dir_root: ./data
task: Task_2
filename: data.mat
save_dir: ./experiments

------ ******* ------ New Log ------ ******* ------
isTrain: True
net: MLP_CE
isCNN: False
isRandom: True
exp_name: Task2_MLP_CE
batch_size: 32
epoch: 250
milestones: [50, 100]
lr: 0.001
weight_decay: 0.0
reweight: 1.0
dir_root: ./data
task: Task_2
filename: data.mat
save_dir: ./experiments
MLP_CE(
  (mlp): Sequential(
    (0): Linear(in_features=779, out_features=32, bias=True)
    (1): ReLU()
    (2): Linear(in_features=32, out_features=32, bias=True)
    (3): ReLU()
    (4): Linear(in_features=32, out_features=32, bias=True)
    (5): ReLU()
    (6): Linear(in_features=32, out_features=2, bias=True)
  )
)
EPOCH = 000/250, [time] = 3.93s, [Acc 10688-tr]:0.731, [avrg loss] = 0.5606559. [Accu 1386-Val]:0.763. Best @ 000, with accu 0.763.
EPOCH = 001/250, [time] = 3.56s, [Acc 10688-tr]:0.757, [avrg loss] = 0.5220306. [Accu 1386-Val]:0.641. Best @ 000, with accu 0.763.
EPOCH = 002/250, [time] = 3.57s, [Acc 10688-tr]:0.789, [avrg loss] = 0.5027435. [Accu 1386-Val]:0.778. Best @ 002, with accu 0.778.
…
EPOCH = 044/250, [time] = 3.87s, [Acc 10688-tr]:0.871, [avrg loss] = 0.3004502. [Accu 1386-Val]:0.795. Best @ 021, with accu 0.813.
EPOCH = 045/250, [time] = 3.69s, [Acc 10688-tr]:0.863, [avrg loss] = 0.3066042. [Accu 1386-Val]:0.777. Best @ 021, with accu 0.813.
EPOCH = 046/250, [time] = 3.77s, [Acc 10688-tr]:0.858, [avrg loss] = 0.3059411. [Accu 1386-Val]:0.810. Best @ 021, with accu 0.813.

------ ******* ------ New Log ------ ******* ------
isTrain: True
net: MLP_CE_2
isCNN: False
isRandom: True
exp_name: Task2_MLP_CE
batch_size: 32
epoch: 250
milestones: [50, 100]
lr: 0.001
weight_decay: 0.0
reweight: 1.0
dir_root: ./data
task: Task_2
filename: data.mat
save_dir: ./experiments
MLP_CE_2(
  (mlp): Sequential(
    (0): Linear(in_features=779, out_features=32, bias=True)
    (1): BatchNorm1d(32, eps=1e-05, momentum=0.1, affine=True, track_running_stats=True)
    (2): ReLU()
    (3): Linear(in_features=32, out_features=32, bias=True)
    (4): BatchNorm1d(32, eps=1e-05, momentum=0.1, affine=True, track_running_stats=True)
    (5): ReLU()
    (6): Linear(in_features=32, out_features=32, bias=True)
    (7): BatchNorm1d(32, eps=1e-05, momentum=0.1, affine=True, track_running_stats=True)
    (8): ReLU()
    (9): Linear(in_features=32, out_features=2, bias=True)
  )
)
EPOCH = 000/250, [time] = 4.12s, [Acc 10688-tr]:0.834, [avrg loss] = 0.4808707. [Accu 1386-Val]:0.823. Best @ 000, with accu 0.823.
EPOCH = 001/250, [time] = 4.03s, [Acc 10688-tr]:0.840, [avrg loss] = 0.3645556. [Accu 1386-Val]:0.740. Best @ 000, with accu 0.823.
EPOCH = 002/250, [time] = 4.05s, [Acc 10688-tr]:0.876, [avrg loss] = 0.2954254. [Accu 1386-Val]:0.864. Best @ 002, with accu 0.864.
…
