
------ ******* ------ New Log ------ ******* ------
isTrain: True
net: CNN_CE_attention
isCNN: True
isRandom: True
exp_name: Task1_CNN_attention
batch_size: 32
epoch: 150
milestones: [50, 100]
lr: 0.001
weight_decay: 0.0
reweight: 1.0
dir_root: ./data
task: Task_1
filename: data_1.mat
save_dir: ./experiments
CNN_CE_attention(
  (feat_extractor): Sequential(
    (0): Conv1d(1, 16, kernel_size=(11,), stride=(5,), bias=False)
    (1): ReLU()
    (2): Conv1d(16, 32, kernel_size=(7,), stride=(3,), bias=False)
    (3): ReLU()
  )
  (feat_mapping): Sequential(
    (0): Conv1d(32, 32, kernel_size=(3,), stride=(1,), padding=(1,), bias=False)
    (1): ReLU()
    (2): Conv1d(32, 32, kernel_size=(3,), stride=(1,), padding=(1,), bias=False)
    (3): ReLU()
  )
  (classifier): Sequential(
    (0): AdaptiveAvgPool1d(output_size=1)
    (1): Flatten()
    (2): Linear(in_features=32, out_features=2, bias=True)
  )
  (attention): Sequential(
    (0): Conv1d(1, 16, kernel_size=(3,), stride=(1,), bias=False)
    (1): ReLU()
    (2): Conv1d(16, 1, kernel_size=(3,), stride=(1,), bias=False)
    (3): ReLU()
  )
)

------ ******* ------ New Log ------ ******* ------
isTrain: True
net: CNN_CE_attention
isCNN: True
isRandom: True
exp_name: Task1_CNN_attention
batch_size: 32
epoch: 150
milestones: [50, 100]
lr: 0.001
weight_decay: 0.0
reweight: 1.0
dir_root: ./data
task: Task_1
filename: data_1.mat
save_dir: ./experiments
CNN_CE_attention(
  (feat_extractor): Sequential(
    (0): Conv1d(1, 16, kernel_size=(11,), stride=(5,), bias=False)
    (1): ReLU()
    (2): Conv1d(16, 32, kernel_size=(7,), stride=(3,), bias=False)
    (3): ReLU()
  )
  (feat_mapping): Sequential(
    (0): Conv1d(32, 32, kernel_size=(3,), stride=(1,), padding=(1,), bias=False)
    (1): ReLU()
    (2): Conv1d(32, 32, kernel_size=(3,), stride=(1,), padding=(1,), bias=False)
    (3): ReLU()
  )
  (classifier): Sequential(
    (0): AdaptiveAvgPool1d(output_size=1)
    (1): Flatten()
    (2): Linear(in_features=32, out_features=2, bias=True)
  )
  (attention): Sequential(
    (0): Conv1d(1, 16, kernel_size=(3,), stride=(1,), padding=(1,), bias=False)
    (1): ReLU()
    (2): Conv1d(16, 1, kernel_size=(3,), stride=(1,), padding=(1,), bias=False)
    (3): ReLU()
  )
)

------ ******* ------ New Log ------ ******* ------
isTrain: True
net: CNN_CE_attention
isCNN: True
isRandom: True
exp_name: Task1_CNN_attention
batch_size: 32
epoch: 150
milestones: [50, 100]
lr: 0.001
weight_decay: 0.0
reweight: 1.0
dir_root: ./data
task: Task_1
filename: data_1.mat
save_dir: ./experiments
CNN_CE_attention(
  (feat_extractor): Sequential(
    (0): Conv1d(1, 16, kernel_size=(11,), stride=(5,), bias=False)
    (1): ReLU()
    (2): Conv1d(16, 32, kernel_size=(7,), stride=(3,), bias=False)
    (3): ReLU()
  )
  (feat_mapping): Sequential(
    (0): Conv1d(32, 32, kernel_size=(3,), stride=(1,), padding=(1,), bias=False)
    (1): ReLU()
    (2): Conv1d(32, 32, kernel_size=(3,), stride=(1,), padding=(1,), bias=False)
    (3): ReLU()
  )
  (classifier): Sequential(
    (0): AdaptiveAvgPool1d(output_size=1)
    (1): Flatten()
    (2): Linear(in_features=32, out_features=2, bias=True)
  )
  (attention): Sequential(
    (0): Conv1d(1, 16, kernel_size=(3,), stride=(1,), padding=(1,), bias=False)
    (1): ReLU()
    (2): Conv1d(16, 1, kernel_size=(3,), stride=(1,), padding=(1,), bias=False)
    (3): ReLU()
  )
)
EPOCH = 000/150, [time] = 2.42s, [Acc 4256-tr]:0.774, [avrg loss] = 0.5900690. [Accu 528-Val]:0.784. Best @ 000, with accu 0.784.
EPOCH = 001/150, [time] = 2.23s, [Acc 4256-tr]:0.773, [avrg loss] = 0.5585791. [Accu 528-Val]:0.784. Best @ 000, with accu 0.784.
EPOCH = 002/150, [time] = 2.31s, [Acc 4256-tr]:0.775, [avrg loss] = 0.5583009. [Accu 528-Val]:0.784. Best @ 000, with accu 0.784.
…
