…
------ ******* ------ New Log ------ ******* ------
isTrain: True
net: MLP_CE_3
isCNN: False
isRandom: True
exp_name: Task1_MLP_CE_3
batch_size: 32
epoch: 150
milestones: [50, 100]
lr: 0.001
weight_decay: 0.0
reweight: 1.0
dir_root: ./data
task: Task_1
filename: data_1.mat
save_dir: ./experiments

------ ******* ------ New Log ------ ******* ------
isTrain: True
net: MLP_CE_3
isCNN: False
isRandom: True
exp_name: Task1_MLP_CE_3
batch_size: 32
epoch: 150
milestones: [50, 100]
lr: 0.001
weight_decay: 0.0
reweight: 1.0
dir_root: ./data
task: Task_1
filename: data_1.mat
save_dir: ./experiments
MLP_CE_3(
  (mlp): Sequential(
    (0): Linear(in_features=779, out_features=16, bias=True)
    (1): BatchNorm1d(16, eps=1e-05, momentum=0.1, affine=True, track_running_stats=True)
    (2): ReLU()
    (3): Linear(in_features=16, out_features=32, bias=True)
    (4): BatchNorm1d(32, eps=1e-05, momentum=0.1, affine=True, track_running_stats=True)
    (5): ReLU()
    (6): Linear(in_features=32, out_features=16, bias=True)
    (7): BatchNorm1d(16, eps=1e-05, momentum=0.1, affine=True, track_running_stats=True)
    (8): ReLU()
    (9): Linear(in_features=16, out_features=2, bias=True)
  )
)
EPOCH = 000/150, [time] = 2.16s, [Acc 4256-tr]:0.818, [avrg loss] = 0.4728022. [Accu 528-Val]:0.784. Best @ 000, with accu 0.784.
EPOCH = 001/150, [time] = 2.08s, [Acc 4256-tr]:0.874, [avrg loss] = 0.3142157. [Accu 528-Val]:0.828. Best @ 001, with accu 0.828.
EPOCH = 002/150, [time] = 2.01s, [Acc 4256-tr]:0.861, [avrg loss] = 0.2697673. [Accu 528-Val]:0.822. Best @ 001, with accu 0.828.
…
EPOCH = 047/150, [time] = 2.04s, [Acc 4256-tr]:0.926, [avrg loss] = 0.1054428. [Accu 528-Val]:0.661. Best @ 018, with accu 0.913.
EPOCH = 048/150, [time] = 2.10s, [Acc 4256-tr]:0.980, [avrg loss] = 0.1071176. [Accu 528-Val]:0.856. Best @ 018, with accu 0.913.
EPOCH = 049/150, [time] = 2.00s, [Acc 4256-tr]:0.950, [avrg loss] = 0.1117057. [Accu 528-Val]:0.858. Best @ 018, with accu 0.913.

------ ******* ------ New Log ------ ******* ------
isTrain: True
net: MLP_CE_3
isCNN: False
isRandom: True
exp_name: Task1_MLP_CE_3
batch_size: 32
epoch: 150
milestones: [50, 100]
lr: 0.001
weight_decay: 0.0
reweight: 1.0
dir_root: ./data
task: Task_1
filename: data_1.mat
save_dir: ./experiments
MLP_CE_3(
  (mlp): Sequential(
    (0): Linear(in_features=779, out_features=32, bias=True)
    (1): BatchNorm1d(32, eps=1e-05, momentum=0.1, affine=True, track_running_stats=True)
    (2): ReLU()
    (3): Linear(in_features=32, out_features=32, bias=True)
    (4): BatchNorm1d(32, eps=1e-05, momentum=0.1, affine=True, track_running_stats=True)
    (5): ReLU()
    (6): Linear(in_features=32, out_features=2, bias=True)
  )
)
EPOCH = 000/150, [time] = 2.05s, [Acc 4256-tr]:0.810, [avrg loss] = 0.4636013. [Accu 528-Val]:0.890. Best @ 000, with accu 0.890.
EPOCH = 001/150, [time] = 1.92s, [Acc 4256-tr]:0.871, [avrg loss] = 0.3306230. [Accu 528-Val]:0.890. Best @ 000, with accu 0.890.
EPOCH = 002/150, [time] = 1.96s, [Acc 4256-tr]:0.891, [avrg loss] = 0.2819246. [Accu 528-Val]:0.900. Best @ 002, with accu 0.900.
…
EPOCH = 058/150, [time] = 1.97s, [Acc 4256-tr]:0.983, [avrg loss] = 0.0675299. [Accu 528-Val]:0.824. Best @ 013, with accu 0.915.
EPOCH = 059/150, [time] = 1.95s, [Acc 4256-tr]:0.983, [avrg loss] = 0.0734587. [Accu 528-Val]:0.847. Best @ 013, with accu 0.915.
EPOCH = 060/150, [time] = 1.82s, [Acc 4256-tr]:0.982, [avrg loss] = 0.0665745. [Accu 528-Val]:0.843. Best @ 013, with accu 0.915.

------ ******* ------ New Log ------ ******* ------
isTrain: True
net: MLP_CE_3
isCNN: False
isRandom: True
exp_name: Task1_MLP_CE_3
batch_size: 32
epoch: 150
milestones: [50, 100]
lr: 0.001
weight_decay: 0.0
reweight: 1.0
dir_root: ./data
task: Task_1
filename: data_1.mat
save_dir: ./experiments
MLP_CE_3(
  (mlp): Sequential(
    (0): Linear(in_features=779, out_features=32, bias=True)
    (1): BatchNorm1d(32, eps=1e-05, momentum=0.1, affine=True, track_running_stats=True)
    (2): ReLU()
    (3): Linear(in_features=32, out_features=32, bias=True)
    (4): BatchNorm1d(32, eps=1e-05, momentum=0.1, affine=True, track_running_stats=True)
    (5): ReLU()
    (6): Linear(in_features=32, out_features=2, bias=True)
  )
)
EPOCH = 000/150, [time] = 2.19s, [Acc 4256-tr]:0.870, [avrg loss] = 0.4633739. [Accu 528-Val]:0.856. Best @ 000, with accu 0.856.
EPOCH = 001/150, [time] = 1.87s, [Acc 4256-tr]:0.896, [avrg loss] = 0.3080886. [Accu 528-Val]:0.881. Best @ 001, with accu 0.881.
EPOCH = 002/150, [time] = 1.93s, [Acc 4256-tr]:0.710, [avrg loss] = 0.2763917. [Accu 528-Val]:0.426. Best @ 001, with accu 0.881.

------ ******* ------ New Log ------ ******* ------
isTrain: True
net: MLP_CE_3
isCNN: False
isRandom: True
exp_name: Task1_MLP_CE_3
batch_size: 32
epoch: 150
milestones: [50, 100]
lr: 0.001
weight_decay: 0.0
reweight: 1.0
dir_root: ./data
task: Task_1
filename: data_1.mat
save_dir: ./experiments
MLP_CE_3(
  (mlp): Sequential(
    (0): Linear(in_features=779, out_features=16, bias=True)
    (1): BatchNorm1d(16, eps=1e-05, momentum=0.1, affine=True, track_running_stats=True)
    (2): ReLU()
    (3): Linear(in_features=16, out_features=32, bias=True)
    (4): BatchNorm1d(32, eps=1e-05, momentum=0.1, affine=True, track_running_stats=True)
    (5): ReLU()
    (6): Linear(in_features=32, out_features=2, bias=True)
  )
)
EPOCH = 000/150, [time] = 2.06s, [Acc 4256-tr]:0.801, [avrg loss] = 0.4567748. [Accu 528-Val]:0.845. Best @ 000, with accu 0.845.
EPOCH = 001/150, [time] = 1.95s, [Acc 4256-tr]:0.887, [avrg loss] = 0.3358845. [Accu 528-Val]:0.930. Best @ 001, with accu 0.930.
EPOCH = 002/150, [time] = 1.95s, [Acc 4256-tr]:0.874, [avrg loss] = 0.2751375. [Accu 528-Val]:0.894. Best @ 001, with accu 0.930.
…
EPOCH = 147/150, [time] = 1.86s, [Acc 4256-tr]:0.989, [avrg loss] = 0.0558074. [Accu 528-Val]:0.818. Best @ 001, with accu 0.930.
EPOCH = 148/150, [time] = 1.91s, [Acc 4256-tr]:0.991, [avrg loss] = 0.0589277. [Accu 528-Val]:0.830. Best @ 001, with accu 0.930.
EPOCH = 149/150, [time] = 1.92s, [Acc 4256-tr]:0.991, [avrg loss] = 0.0464441. [Accu 528-Val]:0.816. Best @ 001, with accu 0.930.

------ ******* ------ New Log ------ ******* ------
isTrain: True
net: MLP_CE_3
isCNN: False
isRandom: True
exp_name: Task1_MLP_CE_3
batch_size: 32
epoch: 150
milestones: [50, 100]
lr: 0.001
weight_decay: 0.0
reweight: 1.0
dir_root: ./data
task: Task_1
filename: data_1.mat
save_dir: ./experiments
MLP_CE_3(
  (mlp): Sequential(
    (0): Linear(in_features=779, out_features=16, bias=True)
    (1): BatchNorm1d(16, eps=1e-05, momentum=0.1, affine=True, track_running_stats=True)
    (2): ReLU()
    (3): Linear(in_features=16, out_features=32, bias=True)
    (4): BatchNorm1d(32, eps=1e-05, momentum=0.1, affine=True, track_running_stats=True)
    (5): ReLU()
    (6): Linear(in_features=32, out_features=2, bias=True)
  )
)
EPOCH = 000/150, [time] = 2.01s, [Acc 4256-tr]:0.940, [avrg loss] = 0.3690908. [Accu 528-Val]:0.905. Best @ 000, with accu 0.905.
EPOCH = 001/150, [time] = 1.95s, [Acc 4256-tr]:0.943, [avrg loss] = 0.1450963. [Accu 528-Val]:0.828. Best @ 000, with accu 0.905.
EPOCH = 002/150, [time] = 1.90s, [Acc 4256-tr]:0.961, [avrg loss] = 0.1077573. [Accu 528-Val]:0.867. Best @ 000, with accu 0.905.
…
EPOCH = 109/150, [time] = 1.92s, [Acc 4256-tr]:0.983, [avrg loss] = 0.0700771. [Accu 528-Val]:0.841. Best @ 002, with accu 0.928.
EPOCH = 110/150, [time] = 1.97s, [Acc 4256-tr]:0.983, [avrg loss] = 0.0634165. [Accu 528-Val]:0.852. Best @ 002, with accu 0.928.
EPOCH = 111/150, [time] = 2.10s, [Acc 4256-tr]:0.986, [avrg loss] = 0.0676967. [Accu 528-Val]:0.835. Best @ 002, with accu 0.928.

------ ******* ------ New Log ------ ******* ------
isTrain: True
net: MLP_CE_3
isCNN: False
isRandom: True
exp_name: Task1_MLP_CE_3
batch_size: 32
epoch: 150
milestones: [50, 100]
lr: 0.001
weight_decay: 0.0
reweight: 1.0
dir_root: ./data
task: Task_1
filename: data_1.mat
save_dir: ./experiments
MLP_CE_3(
  (mlp): Sequential(
    (0): Linear(in_features=779, out_features=16, bias=True)
    (1): BatchNorm1d(16, eps=1e-05, momentum=0.1, affine=True, track_running_stats=True)
    (2): ReLU()
    (3): Linear(in_features=16, out_features=16, bias=True)
    (4): BatchNorm1d(16, eps=1e-05, momentum=0.1, affine=True, track_running_stats=True)
    (5): ReLU()
    (6): Linear(in_features=16, out_features=2, bias=True)
  )
)
EPOCH = 000/150, [time] = 2.03s, [Acc 4256-tr]:0.804, [avrg loss] = 0.4702956. [Accu 528-Val]:0.896. Best @ 000, with accu 0.896.
EPOCH = 001/150, [time] = 1.95s, [Acc 4256-tr]:0.886, [avrg loss] = 0.3679726. [Accu 528-Val]:0.907. Best @ 001, with accu 0.907.
EPOCH = 002/150, [time] = 1.93s, [Acc 4256-tr]:0.880, [avrg loss] = 0.3067289. [Accu 528-Val]:0.902. Best @ 001, with accu 0.907.
…
