
------ ******* ------ New Log ------ ******* ------
isTrain: True
net: CNN_CE
isCNN: True
isRandom: True
exp_name: Task1_CNN_2
batch_size: 32
epoch: 150
milestones: [50, 100]
lr: 0.001
weight_decay: 0.0
reweight: 1.0
dir_root: ./data
task: Task_1
filename: data_1_autoscale.mat
save_dir: ./experiments
CNN_CE(
  (feat_extractor): Sequential(
    (0): Conv1d(1, 16, kernel_size=(11,), stride=(5,), bias=False)
    (1): ReLU()
    (2): Conv1d(16, 32, kernel_size=(7,), stride=(3,), bias=False)
    (3): ReLU()
  )
  (feat_mapping): Sequential(
    (0): Conv1d(32, 32, kernel_size=(3,), stride=(1,), padding=(1,), bias=False)
    (1): ReLU()
    (2): Conv1d(32, 32, kernel_size=(3,), stride=(1,), padding=(1,), bias=False)
    (3): ReLU()
  )
  (classifier): Sequential(
    (0): AdaptiveAvgPool1d(output_size=1)
    (1): Flatten()
    (2): Linear(in_features=32, out_features=2, bias=True)
  )
)
EPOCH = 000/150, [time] = 2.29s, [Acc 4256-tr]:0.774, [avrg loss] = 0.5806082. [Accu 528-Val]:0.784. Best @ 000, with accu 0.784.
EPOCH = 001/150, [time] = 2.15s, [Acc 4256-tr]:0.774, [avrg loss] = 0.5697206. [Accu 528-Val]:0.784. Best @ 000, with accu 0.784.
EPOCH = 002/150, [time] = 2.18s, [Acc 4256-tr]:0.774, [avrg loss] = 0.5630735. [Accu 528-Val]:0.784. Best @ 000, with accu 0.784.
…
EPOCH = 110/150, [time] = 2.10s, [Acc 4256-tr]:0.906, [avrg loss] = 0.2458736. [Accu 528-Val]:0.811. Best @ 016, with accu 0.862.
EPOCH = 111/150, [time] = 2.14s, [Acc 4256-tr]:0.908, [avrg loss] = 0.2435670. [Accu 528-Val]:0.814. Best @ 016, with accu 0.862.
EPOCH = 112/150, [time] = 2.17s, [Acc 4256-tr]:0.898, [avrg loss] = 0.2445075. [Accu 528-Val]:0.809. Best @ 016, with accu 0.862.

------ ******* ------ New Log ------ ******* ------
isTrain: True
net: CNN_CE
isCNN: True
isRandom: True
exp_name: Task1_CNN_2
batch_size: 32
epoch: 150
milestones: [50, 100]
lr: 0.001
weight_decay: 0.0
reweight: 1.0
dir_root: ./data
task: Task_1
filename: data_1.mat
save_dir: ./experiments
CNN_CE(
  (feat_extractor): Sequential(
    (0): Conv1d(1, 16, kernel_size=(11,), stride=(5,), bias=False)
    (1): ReLU()
    (2): Conv1d(16, 32, kernel_size=(7,), stride=(3,), bias=False)
    (3): ReLU()
  )
  (feat_mapping): Sequential(
    (0): Conv1d(32, 32, kernel_size=(3,), stride=(1,), padding=(1,), bias=False)
    (1): ReLU()
    (2): Conv1d(32, 32, kernel_size=(3,), stride=(1,), padding=(1,), bias=False)
    (3): ReLU()
  )
  (classifier): Sequential(
    (0): AdaptiveAvgPool1d(output_size=1)
    (1): Flatten()
    (2): Linear(in_features=32, out_features=2, bias=True)
  )
)

------ ******* ------ New Log ------ ******* ------
isTrain: True
net: CNN_CE
isCNN: True
isRandom: True
exp_name: Task1_CNN_2
batch_size: 32
epoch: 150
milestones: [50, 100]
lr: 0.001
weight_decay: 0.0
reweight: 1.0
dir_root: ./data
task: Task_1
filename: data_1.mat
save_dir: ./experiments
CNN_CE(
  (feat_extractor): Sequential(
    (0): Conv1d(1, 16, kernel_size=(11,), stride=(5,), bias=False)
    (1): ReLU()
    (2): Conv1d(16, 32, kernel_size=(7,), stride=(3,), bias=False)
    (3): ReLU()
  )
  (feat_mapping): Sequential(
    (0): Conv1d(32, 32, kernel_size=(3,), stride=(1,), padding=(1,), bias=False)
    (1): ReLU()
    (2): Conv1d(32, 32, kernel_size=(3,), stride=(1,), padding=(1,), bias=False)
    (3): ReLU()
  )
  (classifier): Sequential(
    (0): AdaptiveAvgPool1d(output_size=1)
    (1): Flatten()
    (2): Linear(in_features=32, out_features=2, bias=True)
  )
)
EPOCH = 000/150, [time] = 2.29s, [Acc 4256-tr]:0.773, [avrg loss] = 0.5565957. [Accu 528-Val]:0.784. Best @ 000, with accu 0.784.
EPOCH = 001/150, [time] = 2.06s, [Acc 4256-tr]:0.774, [avrg loss] = 0.5528785. [Accu 528-Val]:0.784. Best @ 000, with accu 0.784.
EPOCH = 002/150, [time] = 2.15s, [Acc 4256-tr]:0.773, [avrg loss] = 0.5511120. [Accu 528-Val]:0.784. Best @ 000, with accu 0.784.
…
